src/models/model.tflite (tflite, 255752 bytes, 13 tensors)

sequential/dense_1/MatMul f4 [1, 64]
0	0xbe2112d2	-0.15729836
1	0x3e8b9d05	0.27268234
2	0x3bd63197	0.0065366733
3	0xbd3e3ca1	-0.04644454
4	0x3e6f4397	0.23365627
5	0x3d835c92	0.06414141
6	0x3cd62c84	0.026144274
7	0x3e6f1fd5	0.23351987
8	0x3e06563f	0.13118838
9	0xbe92a369	-0.28640297
10	0xbdd1ed36	-0.102503225
11	0xbe82257e	-0.2541923
12	0x3e27a014	0.16369659
13	0x3e7b18e9	0.24521221
14	0x3e02fa2e	0.12790748
15	0x3df4ca66	0.11952667
16	0x3e8a0552	0.26957184
17	0xbe4366fa	-0.19082251
18	0x3b50afda	0.0031843097
19	0x3da72f61	0.08163334
20	0x3e57c017	0.2106937
21	0xbe12d4f8	-0.14339054
22	0xbe3f06a6	-0.1865488
23	0xbe3474fc	-0.17622751
24	0xbe64afb9	-0.22332658
25	0xbe44bd8f	-0.19212936
26	0xbe3e845b	-0.18605177
27	0x3e20c363	0.15699534
28	0xbe4998b8	-0.19687164
29	0xbc0aa4f4	-0.008462179
30	0x3e6949be	0.22782037
31	0x3e992cab	0.2991689
32	0x3e289ba8	0.16465628
33	0x3e1a9aea	0.15098158
34	0x3e3191c0	0.17340755
35	0x3a2e8630	0.0006657569
36	0xbdab7677	-0.08372205
37	0xbe8d5465	-0.2760345
38	0x3d85b085	0.06527809
39	0x3d2b3b03	0.041804325
40	0x3e10327c	0.14081758
41	0xbe898b9f	-0.26864335
42	0x3e4d7275	0.20063193
43	0x3da42630	0.08015096
44	0x3dd9da60	0.10637355
45	0xbe5cb28b	-0.21552484
46	0x3e37dd8c	0.17955607
47	0x3db6858e	0.08912192
48	0x3dd3030b	0.10303315
49	0xbdeae51e	-0.11469482
50	0xbe675d7a	-0.22594252
51	0xbe2b420c	-0.16724414
52	0xbd9d7978	-0.07689184
53	0xbe9c0006	-0.30468768
54	0xbe71d79c	-0.23617405
55	0x3e55fdad	0.20897551
56	0x3c8cb304	0.017175205
57	0xbe147fb8	-0.14501846
58	0x3e934a4b	0.2876762
59	0xbe445fde	-0.19177195
60	0xbdd02190	-0.101626515
61	0x3dbd7dc8	0.092525065
62	0xbd737363	-0.059436213
63	0xbdcdedd7	-0.1005513

sequential/dense/BiasAdd/ReadVariableOp f4 [64]
0	0x39a61726	0.00031679234
1	0xbb897e60	-0.0041959733
2	0xbbb96e5f	-0.005658909
3	0xbbc8a430	-0.0061230883
4	0xbba62a8b	-0.0050709895
5	0xbba7c61e	-0.005120053
6	0xbba44a5d	-0.0050137476
7	0xbbc4bd65	-0.006004023
8	0xbbaeecdf	-0.005338296
9	0xbb4af31d	-0.003096766
10	0x399bc7be	0.00029712723
11	0xbb2fe34e	-0.0026838365
12	0x3985d82f	0.00025528806
13	0xbbba88fe	-0.0056926003
14	0xbb5b4639	-0.0033458604
15	0x3b8db269	0.0043242467
16	0xbbab4ab3	-0.0052274107
17	0xbb54e62b	-0.0032485824
18	0xbb43a7c6	-0.002985464
19	0xbbc4a7a4	-0.0060014296
20	0xbbb6b9e5	-0.0055763596
21	0x3b3aa433	0.0028479218
22	0xbae0631b	-0.001711938
23	0xbbbd2385	-0.0057720565
24	0x3acdc13f	0.0015697851
25	0x3a235298	0.0006230264
26	0xbb40f72b	-0.0029444199
27	0x3c887c38	0.016660795
28	0xba2bfbe9	-0.000656067
29	0xbb5bb617	-0.0033525282
30	0x3c6f4215	0.0146031575
31	0xbb0dbf1f	-0.002162881
32	0xbbc4acc9	-0.006002043
33	0xbb0f1ad8	-0.0021836068
34	0x3c757284	0.014980916
35	0xbbc0867a	-0.005875406
36	0x3af0da81	0.0018375666
37	0xbbab2375	-0.0052227327
38	0xbbbf3c70	-0.005836062
39	0xbab50127	-0.0013809548
40	0x3c952893	0.018207824
41	0xbb513e44	-0.0031927982
42	0x3ca3504a	0.019935746
43	0xbbb99447	-0.005663428
44	0xb9e8f398	-0.0004443198
45	0xbb483145	-0.0030546945
46	0x3c880d04	0.016607769
47	0xbbc4b8e9	-0.0060034883
48	0xbb560c94	-0.0032661306
49	0xbb0ccd5e	-0.0021484713
50	0xbbfa1f33	-0.007633114
51	0x3a66a8df	0.00087989675
52	0xbbba8aea	-0.0056928294
53	0x3ac047e3	0.0014669861
54	0x3ada3cc4	0.001665019
55	0x3cbce800	0.023059845
56	0xbbc47426	-0.0059952913
57	0x3b46558c	0.0030263392
58	0xbba1c843	-0.004937203
59	0xbc474f6e	-0.012164934
60	0xbbe1aa33	-0.0068867444
61	0xbc05966a	-0.008153537
62	0xbac0d801	-0.0014712812
63	0xba97d489	-0.0011583726

sequential/conv2d/BiasAdd/ReadVariableOp f4 [16]
0	0x3c8997c8	0.016796008
1	0xbd03f202	-0.03221322
2	0x3c6b6269	0.0143667245
3	0x3c648983	0.013948801
4	0x3d11ff46	0.03564384
5	0x3d2411f8	0.0400562
6	0xbcb186f5	-0.021670798
7	0x3d151e98	0.03640613
8	0x3c58718b	0.0132106645
9	0xba439ae7	-0.0007461742
10	0x3cb9d427	0.02268417
11	0xbd2795d2	-0.040914364
12	0x3d1c4fff	0.038162228
13	0x3c79228c	0.0152059905
14	0xbd17a1fe	-0.037019722
15	0x3c179ff6	0.009254446

sequential/conv2d_1/BiasAdd/ReadVariableOp f4 [32]
0	0xbc2a0347	-0.010376758
1	0x3caa5128	0.020790651
2	0x3a67751b	0.0008829401
3	0xbd1aa5b2	-0.037755676
4	0xbaad6aeb	-0.0013230717
5	0x3c6382a8	0.013886131
6	0x3c8ce070	0.017196864
7	0x3c3b4f9e	0.011432556
8	0x3cca1744	0.024669297
9	0xbcc0a08a	-0.023514051
10	0x3d10d65a	0.03536067
11	0xbcf108b3	-0.029423093
12	0x3ccb9b5a	0.02485435
13	0x3c05d2e3	0.008167955
14	0xbb61991a	-0.003442353
15	0xbb9c5b37	-0.004771616
16	0xba9ebae5	-0.0012110142
17	0xbcbe003f	-0.023193477
18	0x3c25410a	0.010086307
19	0xbb93dabc	-0.004512159
20	0xbcf371d9	-0.029717373
21	0x3d01c6ba	0.03168366
22	0xbb893a0a	-0.004187827
23	0x3c8cf4b0	0.01720652
24	0x3c4f5ff1	0.012657152
25	0x3cbce0ef	0.023056475
26	0x3bbc4346	0.0057453243
27	0x3c98a7ec	0.018634759
28	0x3aeb5b2a	0.0017956246
29	0xbd05d89d	-0.03267728
30	0xbd18b448	-0.037281305
31	0xba9f806f	-0.0012169013

sequential/conv2d_2/BiasAdd/ReadVariableOp f4 [64]
0	0xbc29d1c5	-0.010364954
1	0xba15850f	-0.0005703726
2	0x3c17316a	0.00922809
3	0x3ce7eb74	0.028310515
4	0x3b011814	0.001969819
5	0xbb99560b	-0.0046794466
6	0x3cb1e8c9	0.021717446
7	0xbc0cd676	-0.008596053
8	0xbc99adef	-0.018759696
9	0xbc93aa2c	-0.01802548
10	0xbbe95923	-0.0071212216
11	0x3a631651	0.0008662688
12	0xbc1d667c	-0.009606954
13	0x3c55fd01	0.013060809
14	0x3cde3bbc	0.027128093
15	0xbc052287	-0.008125908
16	0xbc18cfe8	-0.009326912
17	0xbc8ee7f6	-0.017444592
18	0x3c91ba37	0.01778899
19	0x3b36268c	0.0027793972
20	0xbc948665	-0.01813049
21	0xbc3fcda2	-0.0117067415
22	0xbc525445	-0.012837474
23	0xbc7c1442	-0.015385689
24	0xbc2ffda7	-0.010741628
25	0xb90130fa	-0.00012320644
26	0xbc90a91d	-0.017658764
27	0x3bac8f86	0.0052661328
28	0xbb97274b	-0.0046128384
29	0xbca22572	-0.019793246
30	0x3cd66f51	0.026176127
31	0x3d0bfe90	0.034178317
32	0x3c594933	0.013262081
33	0x3c3ef991	0.011656181
34	0xbb70bcb4	-0.003673357
35	0x3c6d2edf	0.014476507
36	0xbc2732fc	-0.010205027
37	0x39100532	0.00013734846
38	0xbc736fa4	-0.01485816
39	0xbc8cec89	-0.017202633
40	0xba24bb56	-0.0006284019
41	0xbc74e067	-0.01494608
42	0x3b399b00	0.0028321147
43	0xbc4cd7e0	-0.0125026405
44	0x3b757d87	0.0037458853
45	0x3bf445d7	0.0074546146
46	0xbc9a3514	-0.018824138
47	0xbcb1c43d	-0.021700019
48	0xbceeb9c4	-0.029141314
49	0x3c7f1d9f	0.015571027
50	0x3c9f7404	0.0194645
51	0xbbe5c2c3	-0.007011743
52	0x3cb7d7e7	0.022441817
53	0xbc061301	-0.008183242
54	0xbc632980	-0.013864875
55	0x3c625aba	0.013815576
56	0x3cd781b2	0.02630696
57	0x3ceb2cc7	0.028707875
58	0x3c3c00cd	0.0114748
59	0x3bb55000	0.0055332184
60	0x3cac9665	0.021067807
61	0xbc9837cf	-0.0185813
62	0xbb9a0d59	-0.004701298
63	0xba81dc4e	-0.0009907575

sequential/conv2d_3/BiasAdd/ReadVariableOp f4 [64]
0	0xbb94f8b6	-0.00454625
1	0xbbb7167d	-0.0055873976
2	0x3c4fa42c	0.012673419
3	0x3c0f2e31	0.00873904
4	0x3c1f81e1	0.009735555
5	0xbad10196	-0.0015945907
6	0xbba21951	-0.0049468656
7	0xbc293e6d	-0.010329825
8	0x3cb41dc7	0.021986855
9	0x3bd0188b	0.006350582
10	0x3c94e109	0.018173711
11	0x3bb0d81b	0.0053968555
12	0x3c62fdb9	0.0138544375
13	0xbc3c39d6	-0.011488399
14	0xbc82106b	-0.01587697
15	0xbc807dcc	-0.015684985
16	0xbc521943	-0.012823406
17	0xbc17fa06	-0.009275919
18	0x3c89e275	0.016831616
19	0xbc74b54b	-0.014935802
20	0xbbd52fcb	-0.0065059415
21	0xbcc6aa4d	-0.024251128
22	0x3c1e3b61	0.009657712
23	0xbc48f36b	-0.012265067
24	0xbb941fc4	-0.0045203883
25	0xbbe97c70	-0.00712543
26	0x3c61c105	0.01377893
27	0xbc28089f	-0.010255962
28	0x3c95a853	0.01826874
29	0x3ac47847	0.0014989459
30	0xba344fac	-0.0006878327
31	0x3c4d352c	0.012524884
32	0x3c6fef10	0.014644399
33	0x3b1a68ba	0.0023560957
34	0xbc44a6cc	-0.012002658
35	0x3c8744d4	0.016512312
36	0xbb9aed3f	-0.004727989
37	0xbc952694	-0.018206872
38	0x3c476aff	0.012171506
39	0xbbc04e4f	-0.00586871
40	0x3c157ec1	0.009124459
41	0xbbff69f1	-0.0077946116
42	0x3ca035b9	0.019556867
43	0xbbf2f36c	-0.007414272
44	0x3cab7a70	0.020932406
45	0x3d1ce496	0.038303934
46	0x3c3ad2d9	0.011402809
47	0x3b1466c1	0.0022644254
48	0x3b2c85b6	0.0026324815
49	0x3adb3648	0.0016724551
50	0x3d140db0	0.036145866
51	0xbb2ab0f1	-0.0026045407
52	0xbc5f9555	-0.013646443
53	0x3d165e0d	0.036710788
54	0x3bb5b2ac	0.005544981
55	0x3c690589	0.014222511
56	0xbc065c23	-0.008200678
57	0xb960683e	-0.00021401138
58	0x3c67253c	0.014107998
59	0xba207f46	-0.0006122481
60	0xbbe5dbc7	-0.007014725
61	0xbc3f8126	-0.011688506
62	0x3c4d5ad9	0.012533867
63	0xba88f80e	-0.0010449903

sequential/conv2d_4/BiasAdd/ReadVariableOp f4 [64]
0	0x3c629e58	0.013831697
1	0x3bbef8d7	0.005828004
2	0x3be10aba	0.006867734
3	0x3b183367	0.0023223998
4	0xbc3ec36b	-0.011643271
5	0x3c3ae6a8	0.011407532
6	0xbb8b3acc	-0.0042489525
7	0xbaa95399	-0.0012918591
8	0x3bf76da1	0.0075509106
9	0x3c599444	0.013279978
10	0xbbb49b6b	-0.0055116913
11	0x3bf397d0	0.007433869
12	0xbc8bb6c4	-0.017054923
13	0xbc32dc3e	-0.010916768
14	0x3b828549	0.003983174
15	0xba4120ee	-0.00073672726
16	0xbc4e1bfe	-0.012579916
17	0x3c1c70ca	0.009548375
18	0xbc11aa54	-0.008890707
19	0xbc0bab88	-0.008524783
20	0x3c20ebd3	0.00982185
21	0x3bdbc3a5	0.0067066723
22	0xbb98592a	-0.004649301
23	0x3c3d47d1	0.011552767
24	0x3b477fe2	0.0030441214
25	0x3b9a824c	0.0047152396
26	0x3bb6eb65	0.0055822604
27	0x3c1a7b39	0.009428793
28	0xbbfd8092	-0.007736274
29	0x3c1b1c59	0.009467208
30	0xbb73909d	-0.0037165054
31	0x3c405dbf	0.011741101
32	0x3bf195f5	0.0073726126
33	0xbc05d76c	-0.008169036
34	0xbc82f03c	-0.015983693
35	0xbbde9011	-0.0067920764
36	0xbc13299d	-0.008982089
37	0x3bb24773	0.0054406463
38	0x3a661984	0.0008777606
39	0xbc161f93	-0.009162801
40	0xbbf1781d	-0.007369055
41	0x3c95fe1b	0.018309643
42	0x3bcfa582	0.0063368687
43	0xbc22f9b1	-0.009947226
44	0x3bfd367c	0.0077274423
45	0x3c2e02b3	0.010620761
46	0x3b83e710	0.0040253475
47	0x3b11bb1d	0.0022236772
48	0x3bbac00e	0.0056991642
49	0x3c402033	0.011726427
50	0x3c37cede	0.011218755
51	0x3cad26e3	0.021136707
52	0xbc22ec6c	-0.009944063
53	0x3be4e5fc	0.006985424
54	0x3c892858	0.01674287
55	0xbb3d87aa	-0.0028919973
56	0x3c1608e4	0.009157393
57	0xbc3c69e8	-0.011499859
58	0x3c15be12	0.009139555
59	0xbc5afd37	-0.013366035
60	0x3c990c4a	0.018682618
61	0xbc3a0d37	-0.01135569
62	0x3c38a8af	0.011270686
63	0xbb88d125	-0.0041753226

sequential/conv2d/Conv2D f4 [16, 3, 3, 3]
0	0xbdc72ed2	-0.09725727
1	0x3d16821d	0.03674518
2	0x3d3ea7bf	0.046546694
3	0x3c416037	0.011802725
4	0xbd1c64d4	-0.038182095
5	0x3d8d958f	0.06913292
6	0x3def5ce0	0.116876364
7	0x3d85e0a3	0.06536987
8	0x3dcdcbd0	0.1004864
9	0xbe43f4e3	-0.19136386
10	0x3d8eec54	0.0697867
11	0x3d2ce5ea	0.04221145
12	0x3d673d73	0.056455087
13	0xbddaf360	-0.10690951
14	0xbe2fb61b	-0.17159311
15	0x3ca39f88	0.019973531
16	0xbd9c44c3	-0.07630303
17	0x3e013726	0.12618694
18	0x3da4091c	0.0800955
19	0x3d2213be	0.03956961
20	0xbe40fbe6	-0.18846092
21	0xbd12b7b7	-0.035819735
22	0x3de010cc	0.10940704
23	0x3d8e5f80	0.06951809
24	0x3e2d5582	0.1692715
25	0xbd990512	-0.0747167
26	0x3e0d8c44	0.13823038
27	0x3de8c9f0	0.113666415
28	0x3e2549c2	0.16141418
29	0x3caf2664	0.02138061
30	0xbccdfe10	-0.02514556
31	0x3d4ded18	0.05027494
32	0xbd445ae5	-0.047938246
33	0x3dd8ae25	0.105800904
34	0x3e3a5fbd	0.18200584
35	0x3cab8103	0.020935541
36	0x3e0d7b9d	0.13816686
37	0xbde583e1	-0.112067945
38	0x3ce74199	0.028229522
39	0x3d85bc52	0.0653006
40	0x3e12c85e	0.14334247
41	0xbe0c82d7	-0.13721786
42	0x3e11263f	0.14174746
43	0x3de9874a	0.114027575
44	0xbc5db080	-0.01353085
45	0x3dd46715	0.10371224
46	0x3ab41186	0.0013738133
47	0xbe2a9a21	-0.16660358
48	0xbe32eb83	-0.17472653
49	0xbe1ac2b2	-0.15113333
50	0x3d29149b	0.041279417
51	0x3c6347e7	0.013872123
52	0xbe06780e	-0.13131735
53	0x3c9a0445	0.018800864
54	0x3e0f31f7	0.13983904
55	0xbe0f5bf0	-0.13999915
56	0x3e14027b	0.14454071
57	0xbe0b08ef	-0.13577627
58	0xbe1aa74f	-0.15102886
59	0xbdb0057e	-0.085947976
60	0xbddb2a00	-0.1070137
61	0xbc1e5a04	-0.009665016
62	0xbdb3b694	-0.087750584
63	0xbc875577	-0.016520245
64	0x3dfc7877	0.12327664
65	0x3e149c4d	0.14512749
66	0x3d99659c	0.074900836
67	0xbe1a6dc3	-0.15080933
68	0xbdf258d2	-0.118333474
69	0x3dac0369	0.08399088
70	0x3e146745	0.14492519
71	0xbe116477	-0.1419848
72	0x3d2be02a	0.041961826
73	0xbe1952bc	-0.14972967
74	0x3e367c28	0.178208
75	0x3e06d481	0.13167001
76	0x3b439a00	0.002984643
77	0xbe107ac7	-0.14109336
78	0x3e1c6072	0.15271166
79	0x3deda20a	0.11603172
80	0xbdea62f9	-0.11444659
81	0xbdfaa647	-0.12238746
82	0x3dfdfee1	0.1240213
83	0xbe02dd3f	-0.12779711
84	0xbe3bd000	-0.18341064
85	0xbe2afb1a	-0.1669735
86	0xbe1f7461	-0.15571739
87	0xbe0bebd2	-0.13664177
88	0x3e332510	0.17494607
89	0xbcd09cd3	-0.025465405
90	0x3db3db4b	0.08782061
91	0x3e1cb348	0.15302765
92	0xbaf8d582	-0.0018984529
93	0x3e3596fe	0.1773338
94	0x3dd4e997	0.10396116
95	0x3dae4d39	0.08510823
96	0x3ded37ef	0.11582934
97	0xbc088c5f	-0.008334248
98	0xbe36e589	-0.17860998
99	0x3d90b05e	0.07064889
100	0xbe15f946	-0.14645872
101	0x3dd3f5ec	0.1034964
102	0xbd0c60d6	-0.034272037
103	0x3d928a1c	0.071552485
104	0xbd38793b	-0.04503749
105	0x3d83ffec	0.064452976
106	0xbdf2ae4c	-0.11849651
107	0x3d35c542	0.044377573
108	0xbca58e9d	-0.020209605
109	0xbd358e7f	-0.044325348
110	0x3d916b9b	0.07100602
111	0xbcc666f0	-0.024219006
112	0xbe084fa1	-0.13311626
113	0x3e3a1d81	0.18175317
114	0x3e258fdc	0.16168159
115	0xbdaa5a76	-0.08318035
116	0x3e25fb41	0.16209127
117	0x3dd8b1ad	0.10580764
118	0xbda82e52	-0.0821196
119	0x3d7ec7be	0.062202208
120	0x3e3639a5	0.17795427
121	0xbdac2079	-0.08404631
122	0x3e03e898	0.12881696
123	0x3c697302	0.014248611
124	0xbdc1deeb	-0.09466346
125	0xbcc72565	-0.024309823
126	0xbcc8c9f7	-0.024510367
127	0x3da2e438	0.079536855
128	0xbe29d65c	-0.16585678
129	0xbdfc3f7a	-0.12316795
130	0xbd369913	-0.044579577
131	0xbe23cce5	-0.1599613
132	0x3bee2f27	0.0072688046
133	0xbd82bc36	-0.06383555
134	0x3de68802	0.1125641
135	0xbe2b44ed	-0.16725512
136	0xbe1baf2c	-0.15203542
137	0x3bd850cd	0.006601429
138	0x3e2c0bc3	0.16801362
139	0x3dab26f8	0.08357042
140	0xbd44f1d0	-0.048082173
141	0xbd84a8be	-0.064774975
142	0x3d7c2e8d	0.06156783
143	0x3dfa7d5b	0.12230941
144	0x3d62e21f	0.055391427
145	0x3d23058a	0.039800204
146	0x3e241c23	0.16026358
147	0x3da21e78	0.07915968
148	0xbe19e04b	-0.15026967
149	0x3d99061c	0.074718684
150	0xbcd48c2d	-0.025945747
151	0xbdd5e926	-0.1044486
152	0xbe007350	-0.12543988
153	0xbded4be3	-0.1158674
154	0x3d8f4bcb	0.06996878
155	0x3df8a204	0.12140277
156	0xbca03433	-0.01955614
157	0x3e290e0b	0.16509263
158	0xbd38e72e	-0.045142345
159	0xbe2f347e	-0.17109868
160	0xbdce9cc4	-0.100884944
161	0x3bcd1cf0	0.006259553
162	0x3e12509f	0.14288567
163	0x3d658eeb	0.0560445
164	0x3e033098	0.12811506
165	0xbddaa428	-0.106758416
166	0x3d1ee53b	0.03879283
167	0x3d90a196	0.0706207
168	0x3d630361	0.055423144
169	0x3d46a19e	0.048493974
170	0xbcf85771	-0.030315133
171	0x3d965652	0.07340683
172	0x3d3369ba	0.043802
173	0xbbbc3a10	-0.0057442263
174	0xbd956afa	-0.07295795
175	0x3cae8d66	0.021307658
176	0x3ad2a37f	0.0016070454
177	0xbe183bfe	-0.14866635
178	0xbd641719	-0.05568609
179	0x3d131baa	0.035915054
180	0xbd95459d	-0.07288668
181	0x3e03541f	0.12825058
182	0xbd0827be	-0.033241026
183	0x3bd74e1a	0.0065705897
184	0x3e27aa05	0.16373451
185	0xbd9ce864	-0.076615125
186	0xbdaf4217	-0.085575275
187	0x3ddbfefb	0.10741993
188	0xbd7ea5b7	-0.062169757
189	0x3dbd0b3a	0.09230657
190	0xbd23a262	-0.039949782
191	0xbce9e789	-0.028552787
192	0xbdf2342d	-0.11826358
193	0xbd264192	-0.040589876
194	0xbe1b12ae	-0.15143844
195	0x3dde2156	0.10846202
196	0xbe2d0395	-0.16895898
197	0x3e01a2c7	0.12659751
198	0xbe102cf0	-0.14079642
199	0xbe1c2055	-0.15246709
200	0xbd2f2baa	-0.04276625
201	0xbe1de501	-0.1541939
202	0x3cd19e38	0.02558814
203	0x3d820f7d	0.063506104
204	0xbd2e573c	-0.042563662
205	0x3dfaf056	0.12252872
206	0x3d078630	0.033086956
207	0x3d03768c	0.032095477
208	0x39f05e1c	0.00045846484
209	0x3dbd27c7	0.092361026
210	0x3b6c978a	0.0036101067
211	0x3d588b98	0.052867502
212	0xbbfd27a9	-0.007725675
213	0x3dca6ed3	0.09884419
214	0x3d07245a	0.032993652
215	0x3dee9c21	0.11650873
216	0x3e30a56b	0.17250602
217	0x3b648cad	0.0034873888
218	0xbd46a03e	-0.048492663
219	0x3dffb3e0	0.1248548
220	0xbe2c3ab6	-0.16819271
221	0x3e216403	0.15760808
222	0xbd7bc372	-0.061465688
223	0xbd90a83f	-0.070633404
224	0xbd157d1b	-0.036496263
225	0x3dd120e9	0.10211355
226	0xba9ce453	-0.0011969901
227	0xbe2fd65b	-0.17171614
228	0xbe343bca	-0.17600933
229	0xbcbc8525	-0.023012707
230	0xbc4077bd	-0.011747298
231	0x3de704c3	0.11280205
232	0x3e0fa414	0.14027435
233	0xbe460b15	-0.19340165
234	0x3e25135f	0.1612067
235	0x3d0b6e21	0.034040574
236	0xbe2cc12d	-0.16870566
237	0xbdee8295	-0.11646
238	0xbe02da60	-0.12778616
239	0x3d077836	0.033073626
240	0x3dcb430b	0.09924897
241	0xbcab1462	-0.020883743
242	0x3e2921d8	0.16516817
243	0x3d33fde3	0.043943297
244	0x3e32c4e9	0.17457928
245	0xbdfe6b48	-0.12422806
246	0xbd000553	-0.031255078
247	0x3da9e032	0.08294715
248	0x3cfcfe2b	0.030882915
249	0x3e2acc93	0.16679601
250	0xbcaa4113	-0.020782983
251	0x3cca75b8	0.024714336
252	0x3cf6b483	0.030115372
253	0xbd9a90a8	-0.07547122
254	0x3e04d78b	0.12972848
255	0xbd82f9f4	-0.06395331

sequential/conv2d_1/Conv2D i1 [32, 3, 3, 16]
0	0x51	81
1	0xdc	-36
2	0x73	115
3	0xda	-38
4	0xa5	-91
5	0x36	54
6	0x63	99
7	0xe2	-30
8	0xa9	-87
9	0xbc	-68
10	0xea	-22
11	0x0f	15
12	0x0a	10
13	0xa1	-95
14	0x88	-120
15	0x8e	-114
16	0x01	1
17	0xac	-84
18	0xc3	-61
19	0xf8	-8
20	0xed	-19
21	0x19	25
22	0x57	87
23	0xc5	-59
24	0x16	22
25	0xa7	-89
26	0xf0	-16
27	0x4f	79
28	0x0b	11
29	0xcc	-52
30	0xe5	-27
31	0x5a	90
32	0xd0	-48
33	0xad	-83
34	0x49	73
35	0x50	80
36	0xf4	-12
37	0x57	87
38	0xed	-19
39	0xdc	-36
40	0x18	24
41	0x28	40
42	0xb1	-79
43	0xc3	-61
44	0x37	55
45	0x54	84
46	0x81	-127
47	0xf7	-9
48	0xc6	-58
49	0xca	-54
50	0x91	-111
51	0x19	25
52	0xed	-19
53	0x28	40
54	0xf4	-12
55	0xae	-82
56	0xc2	-62
57	0xd8	-40
58	0xab	-85
59	0x15	21
60	0x4d	77
61	0xe1	-31
62	0x0e	14
63	0x4b	75
64	0x64	100
65	0x50	80
66	0xf5	-11
67	0xb3	-77
68	0x91	-111
69	0xe6	-26
70	0x31	49
71	0xf6	-10
72	0x3b	59
73	0xe7	-25
74	0x9f	-97
75	0xb5	-75
76	0x9f	-97
77	0x68	104
78	0xa2	-94
79	0xda	-38
80	0x86	-122
81	0x49	73
82	0x1b	27
83	0x5a	90
84	0xc7	-57
85	0x4a	74
86	0xb8	-72
87	0xad	-83
88	0x4c	76
89	0x0f	15
90	0xbd	-67
91	0xf4	-12
92	0x87	-121
93	0xc4	-60
94	0xe2	-30
95	0x08	8
96	0x9f	-97
97	0xaa	-86
98	0x6c	108
99	0x1a	26
100	0x97	-105
101	0x85	-123
102	0x4f	79
103	0x08	8
104	0xe8	-24
105	0xf6	-10
106	0x2c	44
107	0xd9	-39
108	0x02	2
109	0xb4	-76
110	0xf9	-7
111	0xba	-70
112	0xb3	-77
113	0x3d	61
114	0xe1	-31
115	0xe4	-28
116	0x4e	78
117	0xf0	-16
118	0xbf	-65
119	0xea	-22
120	0xc9	-55
121	0xb8	-72
122	0xbc	-68
123	0x1b	27
124	0x47	71
125	0xdf	-33
126	0x9a	-102
127	0xa9	-87
128	0x1e	30
129	0x2f	47
130	0x3e	62
131	0x16	22
132	0x4e	78
133	0x35	53
134	0xa8	-88
135	0x25	37
136	0x01	1
137	0xe7	-25
138	0xfa	-6
139	0x9f	-97
140	0x23	35
141	0x04	4
142	0xcb	-53
143	0x58	88
144	0x9e	-98
145	0x63	99
146	0xa5	-91
147	0x42	66
148	0x7f	127
149	0x1c	28
150	0xf5	-11
151	0x5e	94
152	0x05	5
153	0x30	48
154	0xa7	-89
155	0xbd	-67
156	0x66	102
157	0xf5	-11
158	0x1c	28
159	0x67	103
160	0xfa	-6
161	0x07	7
162	0x3b	59
163	0xf4	-12
164	0x67	103
165	0x1a	26
166	0xd4	-44
167	0xc6	-58
168	0x26	38
169	0xed	-19
170	0x2e	46
171	0xac	-84
172	0x2b	43
173	0x32	50
174	0x5c	92
175	0x67	103
176	0xec	-20
177	0xc4	-60
178	0xd2	-46
179	0x52	82
180	0xe2	-30
181	0x61	97
182	0x98	-104
183	0x3e	62
184	0xe0	-32
185	0x03	3
186	0xe6	-26
187	0x53	83
188	0xaf	-81
189	0x03	3
190	0xd0	-48
191	0x6f	111
192	0x1a	26
193	0xbd	-67
194	0x20	32
195	0xfe	-2
196	0x63	99
197	0xd1	-47
198	0xf3	-13
199	0x7d	125
200	0x49	73
201	0xf0	-16
202	0x5f	95
203	0xda	-38
204	0x4e	78
205	0xa1	-95
206	0x13	19
207	0xe9	-23
208	0x05	5
209	0xd7	-41
210	0x68	104
211	0xfb	-5
212	0x73	115
213	0x03	3
214	0x5f	95
215	0x27	39
216	0x3b	59
217	0x16	22
218	0xfc	-4
219	0xa2	-94
220	0x18	24
221	0xab	-85
222	0xd3	-45
223	0x59	89
224	0x60	96
225	0xec	-20
226	0xd7	-41
227	0x39	57
228	0x0b	11
229	0xab	-85
230	0xdd	-35
231	0xe3	-29
232	0x4a	74
233	0x02	2
234	0xe5	-27
235	0x11	17
236	0x32	50
237	0x92	-110
238	0xff	-1
239	0x66	102
240	0x4f	79
241	0x2b	43
242	0x58	88
243	0x06	6
244	0x5c	92
245	0x20	32
246	0x08	8
247	0x71	113
248	0xba	-70
249	0x59	89
250	0x6d	109
251	0xba	-70
252	0xe2	-30
253	0x28	40
254	0xd3	-45
255	0xcf	-49

sequential/conv2d_2/Conv2D i1 [64, 3, 3, 32]
0	0x9a	-102
1	0x39	57
2	0xde	-34
3	0x5b	91
4	0xce	-50
5	0x4f	79
6	0x34	52
7	0xf9	-7
8	0x2b	43
9	0xc0	-64
10	0x35	53
11	0xa5	-91
12	0xeb	-21
13	0x69	105
14	0x9d	-99
15	0x6a	106
16	0xf7	-9
17	0xf0	-16
18	0xb6	-74
19	0xc4	-60
20	0xd3	-45
21	0x0a	10
22	0x19	25
23	0x45	69
24	0x81	-127
25	0x3b	59
26	0xec	-20
27	0x02	2
28	0xb5	-75
29	0xd5	-43
30	0xaf	-81
31	0x22	34
32	0x9e	-98
33	0xee	-18
34	0xa5	-91
35	0x14	20
36	0xcf	-49
37	0x28	40
38	0xcd	-51
39	0x26	38
40	0xfc	-4
41	0x24	36
42	0x18	24
43	0x4b	75
44	0x55	85
45	0x0f	15
46	0xe0	-32
47	0x99	-103
48	0x43	67
49	0x05	5
50	0x12	18
51	0xc7	-57
52	0x5c	92
53	0x3f	63
54	0xa0	-96
55	0x0e	14
56	0x67	103
57	0x4a	74
58	0xe0	-32
59	0x9d	-99
60	0x25	37
61	0xf6	-10
62	0xec	-20
63	0xe3	-29
64	0x9f	-97
65	0x07	7
66	0xea	-22
67	0x5c	92
68	0x50	80
69	0x38	56
70	0xe5	-27
71	0x20	32
72	0xcb	-53
73	0xf9	-7
74	0x4c	76
75	0xe6	-26
76	0xaf	-81
77	0x89	-119
78	0xbe	-66
79	0x0b	11
80	0xcc	-52
81	0xe9	-23
82	0xb2	-78
83	0xba	-70
84	0xfb	-5
85	0xe0	-32
86	0xcc	-52
87	0xb4	-76
88	0x1d	29
89	0x54	84
90	0x5d	93
91	0x99	-103
92	0xa7	-89
93	0x88	-120
94	0x14	20
95	0x4e	78
96	0xb9	-71
97	0x18	24
98	0x27	39
99	0xce	-50
100	0xdc	-36
101	0xf1	-15
102	0x15	21
103	0xa8	-88
104	0xc2	-62
105	0xa3	-93
106	0xd9	-39
107	0xbb	-69
108	0xd7	-41
109	0xa9	-87
110	0x50	80
111	0x9f	-97
112	0xf2	-14
113	0xf6	-10
114	0xd4	-44
115	0xe7	-25
116	0x16	22
117	0x61	97
118	0x29	41
119	0x52	82
120	0x17	23
121	0xa3	-93
122	0xde	-34
123	0x10	16
124	0x47	71
125	0xbf	-65
126	0x9c	-100
127	0xf8	-8
128	0xf3	-13
129	0xcc	-52
130	0x3c	60
131	0x56	86
132	0x37	55
133	0xe2	-30
134	0xa7	-89
135	0x3b	59
136	0x27	39
137	0xd6	-42
138	0xfe	-2
139	0x94	-108
140	0xd0	-48
141	0xc8	-56
142	0x46	70
143	0xfe	-2
144	0x38	56
145	0xea	-22
146	0x43	67
147	0x5d	93
148	0xee	-18
149	0xea	-22
150	0xf9	-7
151	0x03	3
152	0xbe	-66
153	0x8e	-114
154	0x12	18
155	0x36	54
156	0x96	-106
157	0x03	3
158	0x99	-103
159	0xd4	-44
160	0xcb	-53
161	0xce	-50
162	0xe7	-25
163	0xd4	-44
164	0xd7	-41
165	0xd3	-45
166	0xfe	-2
167	0xb2	-78
168	0x28	40
169	0x1c	28
170	0x66	102
171	0x01	1
172	0x26	38
173	0x97	-105
174	0x1c	28
175	0xd3	-45
176	0x38	56
177	0xb6	-74
178	0xe7	-25
179	0xd0	-48
180	0x15	21
181	0x33	51
182	0x55	85
183	0x1c	28
184	0x93	-109
185	0x84	-124
186	0x43	67
187	0x21	33
188	0x10	16
189	0x4f	79
190	0xd7	-41
191	0xf0	-16
192	0x01	1
193	0x2a	42
194	0x3b	59
195	0x2f	47
196	0x55	85
197	0xda	-38
198	0xa7	-89
199	0x92	-110
200	0xc4	-60
201	0xba	-70
202	0xdb	-37
203	0x2a	42
204	0xad	-83
205	0x5e	94
206	0xc9	-55
207	0xf5	-11
208	0x27	39
209	0xfa	-6
210	0xbb	-69
211	0x63	99
212	0x5a	90
213	0x35	53
214	0x38	56
215	0x13	19
216	0xe1	-31
217	0x2f	47
218	0x15	21
219	0x32	50
220	0x21	33
221	0x2f	47
222	0x97	-105
223	0xf1	-15
224	0x03	3
225	0xcf	-49
226	0xdc	-36
227	0x49	73
228	0x0c	12
229	0x29	41
230	0x9d	-99
231	0xd7	-41
232	0x37	55
233	0x27	39
234	0x0c	12
235	0x13	19
236	0xa9	-87
237	0x1d	29
238	0x29	41
239	0x03	3
240	0x10	16
241	0x0b	11
242	0xb9	-71
243	0xe3	-29
244	0x64	100
245	0x9c	-100
246	0xbf	-65
247	0xda	-38
248	0x98	-104
249	0x13	19
250	0x62	98
251	0xf2	-14
252	0xa5	-91
253	0xbc	-68
254	0xfb	-5
255	0xea	-22

sequential/conv2d_3/Conv2D i1 [64, 3, 3, 64]
0	0x0d	13
1	0xf3	-13
2	0xb8	-72
3	0xf1	-15
4	0x1d	29
5	0xdf	-33
6	0x20	32
7	0x4f	79
8	0x14	20
9	0x34	52
10	0x52	82
11	0xd5	-43
12	0xcf	-49
13	0xc1	-63
14	0xeb	-21
15	0x57	87
16	0x33	51
17	0x3f	63
18	0xe8	-24
19	0xde	-34
20	0x4f	79
21	0x17	23
22	0x35	53
23	0x33	51
24	0xbe	-66
25	0xde	-34
26	0xc8	-56
27	0x04	4
28	0x2a	42
29	0xc9	-55
30	0x9e	-98
31	0xe5	-27
32	0x18	24
33	0xc7	-57
34	0xbf	-65
35	0x00	0
36	0x28	40
37	0xb7	-73
38	0x28	40
39	0xcd	-51
40	0x3d	61
41	0xec	-20
42	0xee	-18
43	0x43	67
44	0xb4	-76
45	0xbc	-68
46	0xce	-50
47	0x19	25
48	0x25	37
49	0xb8	-72
50	0x02	2
51	0xee	-18
52	0x04	4
53	0xff	-1
54	0x11	17
55	0xc4	-60
56	0x08	8
57	0xea	-22
58	0xad	-83
59	0xd5	-43
60	0x8e	-114
61	0x0c	12
62	0x0e	14
63	0xd3	-45
64	0xd5	-43
65	0xd6	-42
66	0x32	50
67	0xb1	-79
68	0xa9	-87
69	0xfd	-3
70	0xe6	-26
71	0xbf	-65
72	0xdb	-37
73	0xbf	-65
74	0x22	34
75	0x0c	12
76	0xed	-19
77	0xc1	-63
78	0xfb	-5
79	0xaf	-81
80	0xe9	-23
81	0xba	-70
82	0xc3	-61
83	0x3f	63
84	0xb0	-80
85	0xe9	-23
86	0x39	57
87	0x35	53
88	0x01	1
89	0x1a	26
90	0x26	38
91	0x14	20
92	0xe5	-27
93	0x53	83
94	0x9a	-102
95	0xf2	-14
96	0xc4	-60
97	0xad	-83
98	0x4d	77
99	0x32	50
100	0x59	89
101	0x16	22
102	0x52	82
103	0x0e	14
104	0x21	33
105	0xba	-70
106	0x0c	12
107	0x32	50
108	0x13	19
109	0xb2	-78
110	0x0b	11
111	0xfd	-3
112	0xd4	-44
113	0x1d	29
114	0x32	50
115	0x3d	61
116	0xad	-83
117	0xb0	-80
118	0x33	51
119	0xe7	-25
120	0x2d	45
121	0xc5	-59
122	0xe0	-32
123	0xb7	-73
124	0xd1	-47
125	0x10	16
126	0x4b	75
127	0x0c	12
128	0x21	33
129	0x17	23
130	0x37	55
131	0xf1	-15
132	0x3d	61
133	0xaa	-86
134	0xdd	-35
135	0xe3	-29
136	0x20	32
137	0xc2	-62
138	0xb8	-72
139	0x34	52
140	0xbd	-67
141	0xb3	-77
142	0xa4	-92
143	0xb4	-76
144	0x05	5
145	0xed	-19
146	0x06	6
147	0x00	0
148	0x24	36
149	0xd0	-48
150	0x0a	10
151	0xf1	-15
152	0xc0	-64
153	0x43	67
154	0xb9	-71
155	0x52	82
156	0x1b	27
157	0x1a	26
158	0xc0	-64
159	0xd0	-48
160	0x12	18
161	0xeb	-21
162	0xe6	-26
163	0x2c	44
164	0x0d	13
165	0x0c	12
166	0x29	41
167	0xd7	-41
168	0x4a	74
169	0x2f	47
170	0x02	2
171	0xf7	-9
172	0xe7	-25
173	0x12	18
174	0xd0	-48
175	0x38	56
176	0x2b	43
177	0x1a	26
178	0xe7	-25
179	0xe4	-28
180	0xea	-22
181	0xa0	-96
182	0x02	2
183	0x4c	76
184	0x14	20
185	0xd0	-48
186	0xfb	-5
187	0x9c	-100
188	0x93	-109
189	0xb5	-75
190	0x25	37
191	0x1a	26
192	0x37	55
193	0x25	37
194	0xb5	-75
195	0xae	-82
196	0xcd	-51
197	0x5f	95
198	0x2a	42
199	0xac	-84
200	0x09	9
201	0x12	18
202	0x02	2
203	0x31	49
204	0xed	-19
205	0x1b	27
206	0xe3	-29
207	0x43	67
208	0x0e	14
209	0x17	23
210	0xeb	-21
211	0x29	41
212	0x3b	59
213	0xf0	-16
214	0x19	25
215	0xc4	-60
216	0x11	17
217	0x36	54
218	0x4f	79
219	0x0b	11
220	0x30	48
221	0xbe	-66
222	0x1a	26
223	0xe6	-26
224	0xf5	-11
225	0x11	17
226	0x0c	12
227	0x93	-109
228	0xdb	-37
229	0x04	4
230	0x3c	60
231	0x4e	78
232	0x37	55
233	0x44	68
234	0xbf	-65
235	0xe2	-30
236	0x14	20
237	0x17	23
238	0xdd	-35
239	0x2f	47
240	0xe9	-23
241	0x04	4
242	0x26	38
243	0xa1	-95
244	0xe6	-26
245	0xb1	-79
246	0x36	54
247	0x35	53
248	0xe8	-24
249	0xc5	-59
250	0xb8	-72
251	0x23	35
252	0xdb	-37
253	0x12	18
254	0xf4	-12
255	0x04	4

sequential/conv2d_4/Conv2D i1 [64, 3, 3, 64]
0	0xfe	-2
1	0x2f	47
2	0xf1	-15
3	0xe6	-26
4	0xb7	-73
5	0xfc	-4
6	0xba	-70
7	0x3e	62
8	0x3e	62
9	0xcc	-52
10	0x4a	74
11	0x52	82
12	0xe7	-25
13	0xc9	-55
14	0xdb	-37
15	0xf2	-14
16	0xaa	-86
17	0x14	20
18	0xde	-34
19	0x53	83
20	0x17	23
21	0xda	-38
22	0x21	33
23	0xce	-50
24	0xad	-83
25	0xc9	-55
26	0x0d	13
27	0xbc	-68
28	0x2f	47
29	0xe5	-27
30	0x1f	31
31	0xd7	-41
32	0x32	50
33	0xdb	-37
34	0x49	73
35	0x39	57
36	0x1e	30
37	0x25	37
38	0x4d	77
39	0xc7	-57
40	0xc1	-63
41	0xaf	-81
42	0x46	70
43	0x35	53
44	0x55	85
45	0x7f	127
46	0x26	38
47	0xfb	-5
48	0xc9	-55
49	0x4e	78
50	0xb8	-72
51	0x3e	62
52	0xd7	-41
53	0x3f	63
54	0x51	81
55	0x2a	42
56	0xcc	-52
57	0xb6	-74
58	0x02	2
59	0xdc	-36
60	0xd2	-46
61	0x40	64
62	0xc1	-63
63	0x0e	14
64	0x1f	31
65	0xb7	-73
66	0x25	37
67	0xef	-17
68	0x04	4
69	0x2f	47
70	0x05	5
71	0xc9	-55
72	0xaf	-81
73	0x1f	31
74	0x25	37
75	0x28	40
76	0x56	86
77	0x49	73
78	0xcc	-52
79	0xc6	-58
80	0x0f	15
81	0xd3	-45
82	0x42	66
83	0x0a	10
84	0xc5	-59
85	0xaf	-81
86	0xf5	-11
87	0xc5	-59
88	0xcb	-53
89	0x00	0
90	0x31	49
91	0x1d	29
92	0xcf	-49
93	0x1b	27
94	0x43	67
95	0xdb	-37
96	0x50	80
97	0x51	81
98	0xfc	-4
99	0x4f	79
100	0xf8	-8
101	0x41	65
102	0xd6	-42
103	0xfa	-6
104	0x0d	13
105	0x22	34
106	0xc7	-57
107	0xcf	-49
108	0x62	98
109	0xde	-34
110	0xd0	-48
111	0xcf	-49
112	0xc6	-58
113	0x05	5
114	0xb9	-71
115	0x3a	58
116	0x0c	12
117	0x38	56
118	0x34	52
119	0xe0	-32
120	0x26	38
121	0x21	33
122	0x28	40
123	0x30	48
124	0x35	53
125	0xee	-18
126	0xb1	-79
127	0x28	40
128	0x39	57
129	0xf7	-9
130	0x20	32
131	0xd3	-45
132	0x13	19
133	0xcc	-52
134	0x0c	12
135	0xd0	-48
136	0xc1	-63
137	0x68	104
138	0xbd	-67
139	0x1d	29
140	0xd3	-45
141	0xd3	-45
142	0x4d	77
143	0xb9	-71
144	0x05	5
145	0x16	22
146	0xfe	-2
147	0xe0	-32
148	0x0f	15
149	0x1c	28
150	0xf4	-12
151	0xc7	-57
152	0xf1	-15
153	0x14	20
154	0x13	19
155	0xaf	-81
156	0x07	7
157	0x0b	11
158	0x25	37
159	0x37	55
160	0x26	38
161	0xb4	-76
162	0x56	86
163	0xe8	-24
164	0xc7	-57
165	0x27	39
166	0x02	2
167	0x2a	42
168	0xde	-34
169	0x33	51
170	0x10	16
171	0xe4	-28
172	0xd3	-45
173	0x5b	91
174	0xc9	-55
175	0xea	-22
176	0x2a	42
177	0x2a	42
178	0x40	64
179	0xb3	-77
180	0x03	3
181	0x60	96
182	0xf8	-8
183	0xbd	-67
184	0xf5	-11
185	0x01	1
186	0xf4	-12
187	0x4b	75
188	0xf3	-13
189	0xe8	-24
190	0x02	2
191	0xfd	-3
192	0xdc	-36
193	0xc0	-64
194	0x04	4
195	0x20	32
196	0xab	-85
197	0x49	73
198	0xac	-84
199	0x59	89
200	0xa5	-91
201	0x4c	76
202	0xba	-70
203	0x2e	46
204	0x4c	76
205	0xea	-22
206	0xa9	-87
207	0x0c	12
208	0xea	-22
209	0xfb	-5
210	0xda	-38
211	0x04	4
212	0xb9	-71
213	0xcd	-51
214	0xb5	-75
215	0xaa	-86
216	0xb5	-75
217	0xeb	-21
218	0xb5	-75
219	0xc8	-56
220	0xfd	-3
221	0x44	68
222	0xc8	-56
223	0x21	33
224	0xe7	-25
225	0xcc	-52
226	0xfd	-3
227	0xf4	-12
228	0xda	-38
229	0xed	-19
230	0x54	84
231	0x19	25
232	0x02	2
233	0xde	-34
234	0x11	17
235	0xb9	-71
236	0x2d	45
237	0xd8	-40
238	0x29	41
239	0x2c	44
240	0xe9	-23
241	0x48	72
242	0x09	9
243	0xb8	-72
244	0x16	22
245	0x11	17
246	0x48	72
247	0x44	68
248	0x16	22
249	0xf0	-16
250	0x3e	62
251	0xb7	-73
252	0x3c	60
253	0xfb	-5
254	0x1f	31
255	0xc2	-62

sequential/dense/MatMul i1 [64, 2304] scale=0.0008625635 zero_point=0
0	0x62	0.084531225
1	0xf7	-0.0077630715
2	0x0f	0.012938453
3	0x31	0.042265613
4	0x14	0.01725127
5	0x49	0.06296714
6	0x1c	0.024151778
7	0xfb	-0.0043128175
8	0xf6	-0.008625635
9	0xf0	-0.013801016
10	0x10	0.013801016
11	0x02	0.001725127
12	0xf6	-0.008625635
13	0x14	0.01725127
14	0x21	0.028464595
15	0x0d	0.011213325
16	0xf3	-0.011213325
17	0x42	0.05692919
18	0xd0	-0.041403048
19	0x36	0.04657843
20	0x60	0.082806095
21	0x06	0.005175381
22	0xcc	-0.0448533
23	0x5f	0.081943534
24	0x3d	0.052616373
25	0x5f	0.081943534
26	0x1f	0.026739469
27	0x09	0.0077630715
28	0x0e	0.012075889
29	0x0c	0.010350762
30	0x26	0.032777414
31	0x11	0.014663579
32	0x28	0.03450254
33	0x15	0.018113833
34	0x1c	0.024151778
35	0x0f	0.012938453
36	0xcd	-0.04399074
37	0x64	0.08625635
38	0xc3	-0.052616373
39	0x19	0.021564087
40	0xd1	-0.040540483
41	0x63	0.08539379
42	0xe2	-0.025876906
43	0xf2	-0.012075889
44	0xeb	-0.018113833
45	0x5f	0.081943534
46	0x1c	0.024151778
47	0x34	0.0448533
48	0xf8	-0.006900508
49	0x0f	0.012938453
50	0xff	-0.0008625635
51	0x3e	0.053478938
52	0xde	-0.029327158
53	0x40	0.055204064
54	0x3c	0.05175381
55	0x25	0.03191485
56	0xe6	-0.02242665
57	0xe9	-0.01983896
58	0x0c	0.010350762
59	0xda	-0.032777414
60	0x2b	0.03709023
61	0xf9	-0.0060379445
62	0x3f	0.0543415
63	0x03	0.0025876905
64	0xe1	-0.026739469
65	0xfc	-0.003450254
66	0x25	0.03191485
67	0xd6	-0.036227666
68	0x25	0.03191485
69	0xdd	-0.030189723
70	0x04	0.003450254
71	0x21	0.028464595
72	0xe9	-0.01983896
73	0x0e	0.012075889
74	0xfd	-0.0025876905
75	0xf9	-0.0060379445
76	0x10	0.013801016
77	0x03	0.0025876905
78	0x35	0.045715865
79	0x1a	0.02242665
80	0x38	0.048303556
81	0x4d	0.06641739
82	0xcd	-0.04399074
83	0x29	0.035365105
84	0x0e	0.012075889
85	0x11	0.014663579
86	0x1d	0.02501434
87	0x04	0.003450254
88	0xc3	-0.052616373
89	0x09	0.0077630715
90	0xd4	-0.037952796
91	0x2f	0.040540483
92	0xd7	-0.035365105
93	0xdf	-0.028464595
94	0x0f	0.012938453
95	0x15	0.018113833
96	0x27	0.033639975
97	0x24	0.031052286
98	0x2c	0.037952796
99	0x11	0.014663579
100	0xf6	-0.008625635
101	0x10	0.013801016
102	0xf6	-0.008625635
103	0xcb	-0.045715865
104	0xe1	-0.026739469
105	0x04	0.003450254
106	0xf6	-0.008625635
107	0x0b	0.009488199
108	0xd5	-0.03709023
109	0x23	0.030189723
110	0x2f	0.040540483
111	0x23	0.030189723
112	0x01	0.0008625635
113	0xcb	-0.045715865
114	0xf6	-0.008625635
115	0x17	0.01983896
116	0xce	-0.043128174
117	0xfd	-0.0025876905
118	0xf7	-0.0077630715
119	0x57	0.07504302
120	0x17	0.01983896
121	0x13	0.016388707
122	0x26	0.032777414
123	0xff	-0.0008625635
124	0x0d	0.011213325
125	0xd0	-0.041403048
126	0x12	0.015526143
127	0xdc	-0.031052286
128	0x3b	0.050891247
129	0x2b	0.03709023
130	0xe2	-0.025876906
131	0x36	0.04657843
132	0x0a	0.008625635
133	0x0a	0.008625635
134	0xd3	-0.038815357
135	0xd8	-0.03450254
136	0x3d	0.052616373
137	0x0b	0.009488199
138	0x41	0.05606663
139	0x09	0.0077630715
140	0x2a	0.036227666
141	0xea	-0.018976398
142	0x34	0.0448533
143	0xf1	-0.012938453
144	0xfd	-0.0025876905
145	0x23	0.030189723
146	0x22	0.029327158
147	0x30	0.041403048
148	0x19	0.021564087
149	0xf4	-0.010350762
150	0x0b	0.009488199
151	0x08	0.006900508
152	0xfc	-0.003450254
153	0x40	0.055204064
154	0x00	0.0
155	0xf5	-0.009488199
156	0xed	-0.016388707
157	0xcb	-0.045715865
158	0xdc	-0.031052286
159	0x34	0.0448533
160	0x3b	0.050891247
161	0xd2	-0.03967792
162	0x3f	0.0543415
163	0xea	-0.018976398
164	0xff	-0.0008625635
165	0x01	0.0008625635
166	0xc8	-0.048303556
167	0xc6	-0.05002868
168	0xed	-0.016388707
169	0x02	0.001725127
170	0xfc	-0.003450254
171	0x32	0.043128174
172	0x19	0.021564087
173	0x01	0.0008625635
174	0xe8	-0.020701524
175	0xd5	-0.03709023
176	0xd9	-0.033639975
177	0xeb	-0.018113833
178	0xeb	-0.018113833
179	0x1a	0.02242665
180	0xf3	-0.011213325
181	0xe3	-0.02501434
182	0xe8	-0.020701524
183	0xc2	-0.053478938
184	0xe1	-0.026739469
185	0xd5	-0.03709023
186	0x1a	0.02242665
187	0x3d	0.052616373
188	0x23	0.030189723
189	0xd4	-0.037952796
190	0xf2	-0.012075889
191	0x31	0.042265613
192	0xd9	-0.033639975
193	0xe6	-0.02242665
194	0xd6	-0.036227666
195	0x3a	0.05002868
196	0xf1	-0.012938453
197	0x17	0.01983896
198	0x39	0.04916612
199	0xdf	-0.028464595
200	0xcb	-0.045715865
201	0x0c	0.010350762
202	0x21	0.028464595
203	0x15	0.018113833
204	0xcc	-0.0448533
205	0x05	0.0043128175
206	0xdc	-0.031052286
207	0x03	0.0025876905
208	0x2a	0.036227666
209	0x08	0.006900508
210	0x33	0.04399074
211	0x03	0.0025876905
212	0x00	0.0
213	0x04	0.003450254
214	0xf9	-0.0060379445
215	0x0a	0.008625635
216	0xcd	-0.04399074
217	0xc9	-0.04744099
218	0x15	0.018113833
219	0x22	0.029327158
220	0x17	0.01983896
221	0x05	0.0043128175
222	0x05	0.0043128175
223	0xe4	-0.024151778
224	0x30	0.041403048
225	0xdd	-0.030189723
226	0x11	0.014663579
227	0xd1	-0.040540483
228	0xee	-0.015526143
229	0x1b	0.023289215
230	0xcf	-0.042265613
231	0xf0	-0.013801016
232	0x3d	0.052616373
233	0x39	0.04916612
234	0xe4	-0.024151778
235	0xee	-0.015526143
236	0x19	0.021564087
237	0x4e	0.06727995
238	0x1d	0.02501434
239	0x0f	0.012938453
240	0xe2	-0.025876906
241	0xf4	-0.010350762
242	0x3c	0.05175381
243	0xf1	-0.012938453
244	0xe7	-0.021564087
245	0x00	0.0
246	0x32	0.043128174
247	0xe5	-0.023289215
248	0xe2	-0.025876906
249	0xed	-0.016388707
250	0xe5	-0.023289215
251	0xf7	-0.0077630715
252	0xc7	-0.04916612
253	0xfc	-0.003450254
254	0xf6	-0.008625635
255	0x2f	0.040540483
